snake-ai-pytorch/model/model.pth (torch, 16799 bytes, 4 tensors)

linear1.weight f4 [256, 11]
-0.064966336 0.19697557 0.22147566 -0.08916542 -0.07179201 -0.23773287 -0.2627765 0.34751114
0.29313195 0.28587246 0.25691953 -0.5324513 0.12796645 0.19531244 -0.16554834 -0.10987917
-0.020508176 -0.5121481 0.2770329 0.2837209 0.24878243 -0.062917866 0.21962579 -0.099143125
0.34427288 -0.003495086 0.11173153 0.15587239 0.1272573 0.09478059 -0.0026288887 0.37235928
0.3926728 0.5051726 -0.41353053 0.04013872 -0.07552747 0.064214066 -0.019104278 0.024984075
0.2720524 0.2621012 0.017115379 0.16574207 0.02390227 0.29430047 -0.24906257 0.15315692
-0.07513641 0.10059591 -0.3628202 0.28801262 -0.09018277 -0.2948044 0.057654027 -0.19377227
0.35149723 0.032964684 0.28046912 0.26997915 0.021813076 -0.0047549875 0.10174906 0.25006726
-0.2420374 -0.10531181 0.306624 -0.060421493 0.0066613574 -0.07280507 -0.26955244 0.08395046
-0.107433304 0.3688966 0.34622905 -0.00912852 0.2608474 -0.016520599 0.18773752 0.17252517
-0.2480143 -0.19125184 -0.106720015 0.01700287 -0.065710425 -0.18432127 0.09308387 -0.324498
-0.014460685 0.29169092 0.30423185 -0.029685477 -0.32522488 0.056874022 0.20891885 -0.053302556
0.31675038 0.22423612 0.21709277 -0.06307939 0.11652873 -0.23568079 -0.27729207 -0.13441472
-0.012048418 -0.049021155 0.15876651 -0.2933647 -0.0718963 0.016258119 -0.37125158 0.33750686
-0.1755861 0.10062808 -0.039144132 0.33924347 0.25998092 0.15388146 -0.2824661 -0.023007143
-0.16294749 0.34211847 -0.5017659 0.21934322 -0.24646395 0.119674385 0.10170425 -0.27934057
0.21423352 0.116024494 -0.114905104 0.3058443 -0.2283181 0.62430525 -0.1838014 0.26805952
0.3123776 -0.16209152 -0.15989704 0.1837527 0.23117791 -0.25423437 -0.28140137 0.34260687
0.40619117 -0.3423139 -0.061395925 0.16501375 -0.16662732 0.24327207 0.23237757 0.12018011
0.32704836 -0.03655053 -0.27080792 -0.07095975 0.3142992 0.35149345 -0.25971448 -0.39797932
0.46177483 0.2006021 -0.39040375 -0.45669162 -0.19814831 -0.32210094 0.10044634 0.34123987
0.15246642 -0.33232036 0.09619076 -0.019092932 -0.10982009 -0.063038275 0.2513489 0.15656234
-0.0039942516 -0.011015713 -0.30323243 -0.22023563 0.29155394 0.33435798 -0.40673697 -0.37866974
0.044628385 0.10815708 -0.5257295 -0.21691208 0.24101649 0.15381227 0.13445307 0.39406633
-0.36374903 -0.16181135 -0.034505777 0.30421188 -0.20632935 -0.29978868 0.009146869 -0.20713252
0.11829144 0.010726124 -0.30003682 0.016380906 -0.11876112 -0.26609418 0.0089522 -0.10609451
-0.14933999 -0.016523207 -0.28588533 -0.25189605 0.056037612 0.29987985 0.22505881 -0.36359343
-0.43378815 -0.12107399 0.045447133 -0.21852945 0.3016472 -0.5203774 0.12880205 -0.10332984
-0.09234625 0.062470302 -0.15450557 0.19112118 -0.021085799 -0.008313497 -0.031062534 0.05051306
0.007991547 -0.27796507 -0.10627039 -0.39453992 -0.11653678 0.17766665 0.013676181 0.37744653
-0.009189152 -0.16078307 -0.00041434314 0.17701991 0.41286194 -0.31684366 -0.026148723 -0.29608938
-0.14254409 0.27574545 0.09276815 0.31469434 0.091699354 -0.036845062 0.363252 0.115603365
00000000: 120d 85bd f7b3 493e 84ca 623e 5c9c b6bd
00000010: b007 93bd 3f70 73be a48a 86be fbec b13e
00000020: 6415 963e e05d 923e f58a 833e ba4e 08bf
00000030: a309 033e fcff 473e 8185 29be 5508 e1bd
00000040: c300 a8bc 231c 03bf 42d7 8d3e de43 913e
00000050: d2c0 7e3e 15db 80bd 95e5 603e 8d0b cbbd
00000060: 8944 b03e d00d 65bb 80d3 e43d 039d 1f3e
00000070: bd4f 023e 531c c23d 6f49 2cbb e0a5 be3e
00000080: 690c c93e fe52 013f 46ba d3be 8068 243d
00000090: 25ae 9abd aa82 833d 9380 9cbc 67ab cc3c
000000a0: 744a 8b3e 2132 863e 8d35 8c3c 4ab8 293e
000000b0: b1ce c33c 8dae 963e 420a 7fbe 2bd5 1c3e
000000c0: 1ee1 99bd 3a05 ce3d 92c3 b9be 6476 933e
000000d0: beb1 b8bd 9af0 96be a126 6c3d 3d6c 46be
000000e0: 72f7 b33e fa05 073d a699 8f3e b53a 8a3e
000000f0: 56b1 b23c bacf 9bbb d061 d03d d108 803e
00000100: a7d8 77be b8ad d7bd d2fd 9c3e 877c 77bd
00000110: 8447 da3b d31a 95bd c702 8abe 38ee ab3d
00000120: fe05 dcbd 04e0 bc3e ef44 b13e ca8f 15bc
00000130: ca8d 853e 3556 87bc 443e 403e 70aa 303e
00000140: 76f7 7dbe 86d7 43be 0690 dabd 9a49 8b3c
00000150: 3093 86bd b7be 3cbe c2a2 be3d 9a24 a6be
00000160: 82ec 6cbc 8358 953e 47c4 9b3e f52e f3bc
00000170: e083 a6be bcf4 683d d3ee 553e c853 5abd
00000180: 1b2d a23e 279e 653e 914d 5e3e c42f 81bd
00000190: 9da6 ee3d 4e56 71be 3af9 8dbe 03a4 09be
000001a0: ba66 45bc 68ca 48bd b093 223e e633 96be
000001b0: 5e3e 93bd bf2f 853c b014 bebe b3cd ac3e
000001c0: d8cc 33be 1816 ce3d 9955 20bd 52b1 ad3e
000001d0: 381c 853e 1a93 1d3e 669f 90be 7a79 bcbc
000001e0: b5db 26be 272a af3e bb73 00bf 829b 603e
000001f0: 0c61 7cbe d817 f53d 514a d03d ba05 8fbe
00000200: 0860 5b3e 409e ed3d 5e53 ebbd a097 9c3e
00000210: 38cc 69be 78d2 1f3f 6f36 3cbe 193f 893e
00000220: f5ef 9f3e 52fb 25be 0dbc 23be ab29 3c3e
00000230: e7b9 6c3e 022b 82be d713 90be 2b6a af3e
00000240: 4af8 cf3e c443 afbe 4b7a 7bbd 5df9 283e
00000250: 5aa0 2abe 501c 793e 63f4 6d3e fd20 f63d
00000260: e272 a73e 02b6 15bd 56a7 8abe 5853 91bd
00000270: d3eb a03e f3f6 b33e 4cf9 84be f2c3 cbbe
00000280: c06d ec3e a36a 4d3e 00e3 c7be 7cd3 e9be
00000290: 64e7 4abe 6aea a4be d0b6 cd3d feb6 ae3e
000002a0: 2820 1c3e e525 aabe a9ff c43d c868 9cbc
000002b0: 5be9 e0bd 361a 81bd ceb0 803e e151 203e
000002c0: 36e2 82bb 407b 34bc 4841 9bbe 7385 61be
000002d0: 8f46 953e f830 ab3e d43f d0be 00e1 c1be
000002e0: 41cc 363d 7681 dd3d 3596 06bf 331e 5ebe
000002f0: 07cd 763e f780 1d3e 11ae 093e 10c3 c93e
00000300: 503d babe e0b1 25be ee55 0dbd a9c1 9b3e
00000310: 0048 53be e77d 99be c0dc 153c 8c1a 54be
00000320: c842 f23d a0bc 2f3c 6d9e 99be 4031 863c
00000330: 0839 f3bd 7f3d 88be 40ac 123c 1448 d9bd
00000340: 95ec 18be ad5b 87bc 905f 92be 85f8 80be
00000350: b287 653d da89 993e d175 663e eb28 babe
00000360: 7b19 debe a4f5 f7bd c626 3a3d 2fc6 5fbe
00000370: 8071 9a3e 7437 05bf afe4 033e 989e d3bd
00000380: 0820 bdbd dce0 7f3d b536 1ebe 45b5 433e
00000390: 20bc acbc 5535 08bc db76 febc c8e6 4e3d
000003a0: faee 023c 7051 8ebe 4aa4 d9bd 2301 cabe
000003b0: d6aa eebd 3fee 353e 1012 603c ac40 c13e
000003c0: 198e 16bc 51a4 24be 323c d9b9 b544 353e
000003d0: a462 d33e 5539 a2be d935 d6bc 0799 97be
000003e0: 14f7 11be 822e 8d3e 3afd bd3d 9e1f a13e
000003f0: dfcc bb3d d9ea 16bd 2bfc b93e 75c1 ec3d

linear1.bias f4 [256]
-0.045041297 0.23195142 -0.12084107 0.13121271 0.012995989 -0.175893 -0.06478834 0.041397743
0.0037951467 -0.3122844 0.15081438 -0.021703426 -0.038624145 -0.16657393 0.00557789 0.082668245
0.32673392 -0.18697938 -0.16475312 0.39759508 0.18088716 0.012368703 0.061385546 0.010932791
-0.15201218 0.106455125 -0.06731154 -0.06274385 -0.10229001 -0.24907827 0.057727773 -0.10824501
-0.15974902 -0.1974543 -0.29393816 -0.15963382 0.14587368 0.054143094 0.26120335 0.036531616
0.39402372 0.30547306 -0.032531973 0.1560118 0.14873758 -0.006439579 -0.1557056 -0.24783449
0.012910098 0.25779018 0.48358494 -0.13349472 -0.005454871 -0.13541456 0.24311037 -0.09574893
-0.042008437 -0.041000113 -0.0572509 -0.08884297 -0.2725367 -0.15443027 -0.20176795 0.10367705
-0.19264872 -0.15128198 -0.19033493 0.11531157 0.057140257 0.17681395 0.1916596 -0.04045623
-0.10519397 0.25338936 0.12540597 0.23055427 0.15087916 0.0063821315 -0.049571965 -0.13069743
0.02217789 0.018434718 -0.3292914 0.09249781 0.073739424 -0.056696422 -0.21521786 0.110509954
-0.228274 0.0154424105 -0.2097937 0.17214097 -0.108636245 -0.3234875 -0.23058376 0.15806697
0.11384239 -0.035416573 -0.28948778 -0.22654952 -0.15484422 -0.06337365 -0.3022647 0.44983009
0.13735367 -0.09950838 -0.02893454 -0.29086015 -0.13363199 0.016106077 -0.03527997 -0.032182198
-0.058526754 0.37395102 -0.20920782 -0.24488921 0.06837448 0.08626878 -0.076004416 0.068987094
-0.20134076 0.34164947 -0.11391906 0.067024335 0.08081458 -0.10087281 -0.10509972 -0.14456601
-0.21851538 0.15184575 -0.055508487 0.074840404 0.08055556 0.47377887 -0.028181648 -0.20239311
0.2813911 0.028525088 -0.28349024 0.13523075 -0.27330446 0.03600125 -0.09191126 -0.1243336
-0.053189207 -0.17127486 -0.010426784 -0.028642569 0.41202676 0.02397494 -0.014714685 -0.09738324
0.015221579 0.10102304 -0.097484864 -0.13957566 -0.15824416 0.1527772 -0.20385899 -0.20341593
-0.15134785 0.092769995 -0.15024254 -0.17858383 -0.31924924 0.18989779 -0.23486641 0.34739769
0.5048012 -0.057053115 0.051833335 0.25016052 -0.08413975 -0.16757625 0.21929774 0.45438513
-0.093603134 0.22920407 -0.016626408 -0.11261997 0.12616731 -0.14121868 -0.35237667 0.17659457
-0.001992943 0.42251912 -0.0019067773 0.05679385 -0.4233062 -0.107974455 0.1081187 -0.10086376
-0.058507983 0.015846547 0.14756203 -0.19373767 0.11949398 0.2983254 0.059042554 -0.073378876
-0.04363944 -0.21570419 -0.043103915 0.0024732903 -0.21826099 0.2761142 -0.26239845 -0.17290066
0.12597439 -0.11440886 0.26410502 0.12718119 -0.23263378 -0.40337825 0.11557973 -0.3898309
-0.029099159 -0.09731158 -0.16367854 -0.11844515 0.020018367 -0.088649586 -0.09282208 0.14029673
0.35224342 -0.027873667 -0.20129944 0.15333733 0.29453483 -0.17842391 -0.0030147713 0.36805296
-0.14990294 -0.07402126 0.17744647 -0.122361 0.32202563 0.010872439 0.05493443 0.060676754
-0.1472707 -0.042214666 0.15584718 -0.086289585 -0.07767702 -0.120042995 0.056738503 0.013627012
-0.030816348 0.06525819 -0.12622443 -0.09751466 -0.012166103 -0.20040199 0.05929246 0.031962916
00000000: 397d 38bd ac84 6d3e 867b f7bd a05c 063e
00000010: 21ed 543c 4b1d 34be c0af 84bd ae90 293d
00000020: ffb7 783b bee3 9fbe 166f 1a3e 62cb b1bc
00000030: 5a34 1ebd 5b92 2abe bcc6 b63b f84d a93d
00000040: ab49 a73e 8677 3fbe 0bb5 28be 9591 cb3e
00000050: 7c3a 393e 1aa6 4a3c 696f 7b3d 731f 333c
00000060: 15a9 1bbe 2505 da3d a2da 89bd d97f 80bd
00000070: 6d7d d1bd 600e 7fbe f573 6c3d 8faf ddbd
00000080: 3f95 23be 7631 4abe 107f 96be 0c77 23be
00000090: e95f 153e 26c5 5d3d 72bc 853e 2da2 153d
000000a0: 7abd c93e f766 9c3e 3f40 05bd 8fc1 1f3e
000000b0: aa4e 183e 1b03 d3bb 4a71 1fbe 53c8 7dbe
000000c0: e084 533c 13fd 833e 7298 f73e d7b2 08be
000000d0: c6be b2bb 1daa 0abe edf1 783e 0418 c4bd
000000e0: 0a11 2cbd bcef 27bd eb7f 6abd 4ef3 b5bd
000000f0: ee89 8bbe f822 1ebe 429c 4ebe a254 d43d
00000100: b545 45be aae9 1abe 29e7 42be 7928 ec3d
00000110: e70b 6a3d b70e 353e 6a42 443e 6fb5 25bd
00000120: f06f d7bd 40bc 813e 6c6a 003e 6b16 6c3e
00000130: 1180 1a3e 3321 d13b f90b 4bbd 8cd5 05be
00000140: 68ae b53c 6804 973c e298 a8be 7e6f bd3d
00000150: b204 973d 823a 68bd 1262 5cbe 0b53 e23d
00000160: a9c0 69be 2a02 7d3c 29d4 56be b945 303e
00000170: ae7c debd 27a0 a5be 261e 6cbe 4fdc 213e
00000180: 3326 e93d f810 11bd be37 94be 99fc 67be
00000190: 7c8f 1ebe 0bca 81bd 70c2 9abe 2150 e63e
000001a0: 71a6 0c3e 0dcb cbbd 2108 edbc 9feb 94be
000001b0: d3d6 08be e4f0 833c bb81 10bd 7bd1 03bd
000001c0: c0b9 6fbd 8276 bf3e 933a 56be 3dc4 7abe
000001d0: eb07 8c3d b0ad b03d 34a8 9bbd 1b49 8d3d
000001e0: 462c 4ebe aeec ae3e 654e e9bd 0e44 893d
000001f0: 1d82 a53d 6796 cebd 863e d7bd 1d09 14be
00000200: 7fc2 5fbe 747d 1b3e de5c 63bd ed45 993d
00000210: 50fa a43d 2593 f23e 33dd e6bc 2440 4fbe
00000220: 7f12 903e 72ad e93c a225 91be ee79 0a3e
00000230: 90ee 8bbe 0c76 133d f83b bcbd 9da2 febd
00000240: eddc 59bd ad62 2fbe 1ad5 2abc d2a3 eabc
00000250: 2cf5 d23e 1867 c43c dd15 71bc dd70 c7bd
00000260: ee63 793c 2be5 ce3d 25a6 c7bd ecec 0ebe
00000270: c20a 22be a071 1c3e 69c0 50be 444c 50be
00000280: eefa 1abe 32fe bd3d 2ed9 19be aede 36be
00000290: a374 a3be 9174 423e d280 70be 1cde b13e
000002a0: a73a 013f 87b0 69bd 314f 543d 0a15 803e
000002b0: 7651 acbd 1c99 2bbe 968f 603e 2ba5 e83e
000002c0: 00b3 bfbd 79b4 6a3e 1b34 88bc 4da5 e6bd
000002d0: 0132 013e a19b 10be b76a b4be 35d5 343e
000002e0: 099c 02bb 6d54 d83e d4ec f9ba aba0 683d
000002f0: 97bb d8be b621 ddbd 566d dd3d a991 cebd
00000300: 11a6 6fbd 9ed0 813c 801a 173e 2b63 46be
00000310: 43b9 f43d 1bbe 983e 9bd6 713d aa47 96bd
00000320: 45bf 32bd 8fe1 5cbe bb8d 30bd ed16 223b
00000330: cf7f 5fbe d75e 8d3e 1759 86be df0c 31be
00000340: 6eff 003e 314f eabd c638 873e c93b 023e
00000350: 8d37 6ebe 9887 cebe 11b5 ec3d ea97 c7be
00000360: 5c61 eebc 4b4b c7bd 599b 27be 5f93 f2bd
00000370: 8ffd a33c ea8d b5bd 8119 bebd f2a9 0f3e
00000380: 4059 b43e 5157 e4bc 7121 4ebe 7604 1d3e
00000390: 45cd 963e c2b4 36be 7893 45bb 7071 bc3e
000003a0: 2880 19be 7598 97bd 87b4 353e 6798 fabd
000003b0: 8be0 a43e 5022 323c ed02 613d 3088 783d
000003c0: 21ce 16be 49e9 2cbd 6796 1f3e 98b8 b0bd
000003d0: 2115 9fbd 1ad9 f5bd a266 683d d543 5f3c
000003e0: 9172 fcbc 16a6 853d fa40 01be c4b5 c7bd
000003f0: 5654 47bc 2e36 4dbe a7dc 723d 8ceb 023d

linear2.weight f4 [3, 256]
-0.10144496 0.12082566 -0.09538861 -0.073978506 -0.011468797 0.13843454 -0.1772988 0.014114469
-0.03618086 -0.019497663 0.20124394 -0.23276171 0.25880435 -0.25993994 0.33255112 0.039309744
0.37474087 0.22686265 -0.030939005 0.23911744 -0.009291113 -0.2431676 -0.11068981 0.03498441
0.023793317 -0.12123576 -0.026435813 -0.34959435 -0.49489644 -0.31329456 0.21478005 -0.17206986
-0.41703817 -0.050351016 -0.015137548 -0.496548 -0.095329046 -0.01809351 0.18926156 0.01236964
0.18060063 0.24436158 0.16108851 -0.0027877376 -0.021583125 0.15583195 -0.3765386 -0.12526372
0.04112076 0.087105945 0.1794458 0.10266295 -0.102161855 0.3236341 0.40609604 -0.16380815
0.015351635 -0.19741163 0.24553129 -0.15997276 -0.21036084 -0.82748675 -0.21866557 0.3330541
0.04089757 -0.25630918 0.15862931 0.34453982 0.26299354 -0.13755493 0.19266164 0.13102783
-0.27655146 0.20547076 0.37572932 0.19801672 -0.22448377 -0.06682997 -0.025613287 0.38399005
-0.16408233 -0.11250123 0.030074812 0.06345002 0.33452982 0.20069537 0.1381234 0.32067692
-0.13305877 0.16009207 -0.36808348 0.24130498 0.11829603 -0.047796674 0.29087058 0.17130606
0.0057107527 -0.16187622 -0.026103498 -0.030401133 -0.33203346 -0.23507068 -0.2689561 0.25000355
-0.24680293 0.06424417 -0.08176046 -0.3900885 -0.3741639 -0.00043259974 0.15293752 -0.44749346
0.09441134 0.38809863 -0.19581594 -0.5407249 -0.030834615 0.056633607 -0.33075252 0.020344287
-0.025053898 0.2749792 -0.068203256 0.0049779695 -0.1643113 0.22691731 0.3090812 -0.24672663
0.032843065 0.17630409 -0.0077615343 -0.56102234 0.034847166 0.30448112 -0.0025709667 -0.41069824
0.23299296 -0.3132463 -0.1527617 -0.33961418 -0.3015112 -0.065821156 -0.23930627 -0.31567785
-0.038097113 0.0097323675 -0.48175997 -0.23746604 0.15738723 -0.19076674 0.11148607 0.19350228
0.12952696 0.032697573 -0.4934131 -0.34766617 -0.2410971 -0.040159967 -0.218497 -0.14003631
-0.3339748 0.0034589367 -0.4102657 -0.09267716 -0.0054733003 0.29804415 -0.186378 0.15799986
0.32662895 -0.44048277 -0.07209196 0.08984048 0.20784117 -0.105999805 0.329222 0.21258314
-0.065510504 0.17041194 -0.57866096 -0.15279563 -0.25063074 -0.21290958 0.044397406 0.003926122
-0.07927724 0.2107758 -0.4614086 0.3426928 -0.017345957 -0.24996905 0.117181234 -0.11035176
-0.06980156 -0.12049555 0.08258528 -0.3647596 0.009348967 0.2392596 0.13721633 -0.018817127
-0.21315917 -0.1462704 -0.24692908 0.08145245 -0.022709724 0.34680644 -0.011864424 -0.12813884
-0.4347325 -0.1831662 0.091560125 0.029075094 -0.3245025 -0.39157382 -0.4472543 0.008282343
0.10697724 -0.23158026 -0.15648092 -0.28109515 0.27225834 -0.17148565 -0.25961623 0.210459
0.27113777 -0.037395597 -0.32030317 -0.028582478 0.30316216 -0.20432521 -0.03134472 0.26055434
-0.12171988 -0.10356775 0.39521652 -0.5539202 0.17343973 0.16609553 -0.24791135 0.0121687045
-0.0032214008 0.39366618 0.06677623 -0.3044245 -0.46600038 0.27991337 0.32068557 0.3741564
0.01097386 -0.35113528 0.16025406 -0.36080685 -0.17500642 -0.18284485 -0.08613313 -0.04135045
00000000: 60c2 cfbd 7273 f73d 1b5b c3bd 0b82 97bd
00000010: 9fe7 3bbc c9c1 0d3e d18d 35be 6040 673c
00000020: 6232 14bd 90b9 9fbc e412 4e3e 1659 6ebe
00000030: 0182 843e d916 85be 2444 aa3e 4103 213d
00000040: 09de bf3e af4e 683e cc73 fdbc 34db 743e
00000050: c139 18bc ed00 79be 57b1 e2bd d04b 0f3d
00000060: 34ea c23c 744a f8bd eb8f d8bc 08fe b2be
00000070: 1163 fdbe 2568 a0be 4def 5b3e 1533 30be
00000080: 0786 d5be de3c 4ebd 7a03 78bc 8a3b febe
00000090: e03b c3bd d738 94bc c8cd 413e 08aa 4a3c
000000a0: 5fef 383e ec39 7a3e 63f4 243e 7ab2 36bb
000000b0: 18cf b0bc 6992 1f3e abc9 c0be 2245 00be
000000c0: 3e6e 283d 9a64 b23d a4c0 373e f440 d23d
000000d0: 3c3a d1bd 5eb3 a53e d2eb cf3e 53bd 27be
000000e0: 6d85 7b3c 4626 4abe 8e6c 7b3e e6cf 23be
000000f0: d568 57be 2cd6 53bf dee9 5fbe 1186 aa3e
00000100: 3684 273d f53a 83be b96f 223e 8667 b03e
00000110: 17a7 863e 33db 0cbe 1849 453e 292c 063e
00000120: 2798 8dbe ed66 523e 985f c03e e5c4 4a3e
00000130: 13df 65be 27de 88bd f5d2 d1bc 589a c43e
00000140: 3305 28be 0b67 e6bd 745f f63c 16f2 813d
00000150: 7e47 ab3e 1683 4d3e 3870 0d3e c42f a43e
00000160: 8f40 08be 2def 233e 7075 bcbe a718 773e
00000170: 3045 f23d 72c6 43bd fdec 943e db6a 2f3e
00000180: 4421 bb3b e1c2 25be 01d7 d5bc cc0b f9bc
00000190: 4a00 aabe 5eb6 70be 9db4 89be 7700 803e
000001a0: e8b9 7cbe 7392 833d 0772 a7bd aeb9 c7be
000001b0: 6992 bfbe 8ece e2b9 a79b 1c3e dd1d e5be
000001c0: bc5a c13d ddb4 c63e f983 48be f26c 0abf
000001d0: e098 fcbc a4f8 673d 6558 a9be 10a9 a63c
000001e0: d53d cdbc 13ca 8c3e 26ae 8bbd 3c1e a33b
000001f0: 3941 28be 035d 683e e43f 9e3e e8a5 7cbe
00000200: 7386 063d 0f89 343e 7854 febb 299f 0fbf
00000210: e7bb 0e3d f3e4 9b3e aa7d 28bb 0a47 d2be
00000220: b595 6e3e d261 a0be 906d 1cbe e9e1 adbe
00000230: ad5f 9abe 3ecd 86bd b40c 75be 87a0 a1be
00000240: b80b 1cbd 8274 1f3c 3ea9 f6be 4c2a 73be
00000250: 1e2a 213e 5b58 43be cf52 e43d 7625 463e
00000260: b7a2 043e e4ed 053d a4a0 fcbe 4d01 b2be
00000270: 28e2 76be c77e 24bd adbd 5fbe ae65 0fbe
00000280: bffe aabe 54af 623b 590e d2be 86cd bdbd
00000290: 5f59 b3bb 3e99 983e e0d9 3ebe b7ca 213e
000002a0: e93b a73e f586 e1be f3a4 93bd 49fe b73d
000002b0: 51d4 543e 6d16 d9bd c98f a83e 65af 593e
000002c0: 5f2a 86bd 7880 2e3e 2023 14bf 7576 1cbe
000002d0: ac52 80be f804 5abe 0eda 353d b3a6 803b
000002e0: 1b5c a2bd 9cd5 573e bf3d ecbe 6e75 af3e
000002f0: 1c19 8ebc e3f7 7fbe b7fc ef3d 1b00 e2bd
00000300: 1ff4 8ebd 5fc6 f6bd 7922 a93d c5c1 babe
00000310: 692c 193c 7800 753e 7082 0c3e 6026 9abc
00000320: 6646 5abe e8c7 15be fada 7cbe 8bd0 a63d
00000330: be09 babc 9d90 b13e 0063 42bc d436 03be
00000340: 4295 debe ec8f 3bbe e083 bb3d e42e ee3c
00000350: 3125 a6be 5d7c c8be 84fe e4be aab2 073c
00000360: e216 db3d 6023 6dbe 893c 20be b4eb 8fbe
00000370: 7265 8b3e ef99 2fbe 6bec 84be 9082 573e
00000380: 92d2 8a3e 202c 19bd c7fe a3be cd25 eabc
00000390: 1238 9b3e a13a 51be 5263 00bd 6167 853e
000003a0: 4648 f9bd 541b d4bd d259 ca3e b7cd 0dbf
000003b0: 2f9a 313e f214 2a3e 79dc 7dbe 3f5f 473c
000003c0: 231e 53bb 9d8e c93e fac1 883d 87dd 9bbe
000003d0: 9a97 eebe ce50 8f3e e630 a43e 6d91 bf3e
000003e0: b4cb 333c 01c8 b3be a419 243e adbb b8be
000003f0: e234 33be ae3b 3bbe 9166 b0bd 175f 29bd

linear2.bias f4 [3]
0.08867645 0.032634333 -0.0247035
00000000: 009c b53d 94ab 053d ff5e cabc
